resnet.pth (torch, 1874 bytes, 2 tensors)

fc1.weight f4 [10, 10]
000000 8b aa 0a bd c1 fa 6c 3d 9f bd 85 3e 0e 9e 1e 3e
       -0.03385405 0.057856325 0.26121232 0.1548998
000010 2f 64 9a be 5d ec 70 be 67 e4 80 3e 8e a1 81 3e
       -0.3015456 -0.23527665 0.25174257 0.2531857
000020 24 da 75 bd b5 dc ae 3d cc e6 39 be 7a a8 3c be
       -0.06002249 0.0853819 -0.18154448 -0.18423644
000030 f6 9b 95 3e e5 b7 49 3e f8 f0 82 be 2d 7e 3e 3e
       0.2922055 0.19699056 -0.2557447 0.1860282
000040 6f 81 e1 bd 7f ac d7 bd 6a 7c e4 3d ef a8 3e be
       -0.110110156 -0.10530948 0.111565426 -0.1861913
000050 51 4b 25 3e 05 52 eb 3c 09 19 4d bd 1e 9e 16 3e
       0.16142012 0.028725633 -0.050072704 0.14708754
000060 76 9f 7d be 1a 21 82 be 65 bc 1e be da ab 04 3d
       -0.24767861 -0.2541588 -0.15501554 0.032390453
000070 20 8f 26 3e f0 f9 97 be 36 67 c5 3d d4 51 cf 3d
       0.16265535 -0.29682875 0.096388265 0.10123029
000080 f3 a3 b2 3d 23 2d aa bd 47 de 41 3e 3b aa 75 bd
       0.08722677 -0.083093904 0.18932448 -0.059976798
000090 d3 52 9f 3e 76 96 c4 bd a0 ee 7a 3d e7 a1 3b be
       0.31117877 -0.09599011 0.061262727 -0.1832348
0000a0 2a e3 8a be ec 61 6b be 18 3f 2a 3e 8c 54 f1 bd
       -0.27126437 -0.22986573 0.16625631 -0.11783704
0000b0 ab e2 16 be 5e 41 15 be e0 90 2d be 27 95 70 3d
       -0.14734904 -0.14575717 -0.16949797 0.058735993
0000c0 f9 49 a0 be ba d9 52 be df 89 08 be 9b 89 59 3d
       -0.31306437 -0.20590869 -0.13333844 0.053109746
0000d0 cf 44 66 bc a2 f9 0c 3e 50 d2 89 3e 73 b4 40 3e
       -0.014054491 0.13767102 0.26918268 0.18818836
0000e0 e5 85 7d 3e 33 25 8b 3e 80 7f 16 be ae ed 74 bd
       0.24758108 0.27176818 -0.14697075 -0.05979698
0000f0 40 cd c4 3c 1b 2b 1f 3e a8 66 56 3e 95 0d 82 be
       0.024023652 0.15543787 0.20937598 -0.25400987
000100 11 d4 1a bd ef ed cd 3c 3e 95 93 be c2 fa 84 be
       -0.0377999 0.02513787 -0.288248 -0.25972563
000110 3f 8f 5d 3b 30 a3 30 3e b8 97 9c bc 5c 9a 0e bd
       0.0033807305 0.17249751 -0.019115314 -0.034815177
000120 cc ef 44 3d d3 25 94 be 47 8a 34 be 77 78 b8 3d
       0.04808025 -0.28935108 -0.17630874 0.09007352
000130 fb f1 69 be 1b 95 b8 3d d3 a3 7b 3e 2d b3 52 3e
       -0.22846214 0.090128146 0.24574213 0.20576163
000140 e1 48 41 be 81 7e 30 3e b2 79 bc bd 63 08 67 3e
       -0.18875457 0.17235757 -0.09202899 0.22561793
000150 2d 3e 17 3e e6 6b df bd 53 99 9a 3e 2b ed 96 3e
       0.14769812 -0.10909252 0.30195102 0.2947782
000160 2f 59 cf bd c3 a6 0c 3d 28 f4 66 be 9d 34 ae bd
       -0.10124432 0.034338724 -0.22554076 -0.08506129
000170 f6 88 5d 3e c2 05 e9 3d 8f f4 94 3e 06 c0 1b be
       0.21634278 0.11378051 0.29092833 -0.1520997
000180 eb f9 27 bd f5 a4 5a be 58 5e 8f be 4d 18 8a 3e
       -0.041009825 -0.21351989 -0.28001666 0.26971665

fc1.bias f4 [10]
000000 f3 ae c7 3d d6 5a 81 bd cf 0b 01 3e c5 9c 43 3e
       0.09750166 -0.06316154 0.12602161 0.19102772
000010 6f 75 42 be 76 04 83 bc d3 d9 1e bd 8e bb 19 3e
       -0.1899011 -0.015993338 -0.038781952 0.15012953
000020 0e 0e 82 be 86 11 33 3d
       -0.25401348 0.043717884
